Lab 3/model_rnn_context512_hiddensize256.pt (torch, 705025 bytes, 7 tensors)

embedding_table.weight f4 [86, 256]
000000 b2 3d b1 3b 3f 39 0b be 4e b9 ca 3f 5e 5a 79 bf
       0.005408966 -0.13596056 1.58378 -0.97403514
000010 62 da 12 c0 de 51 14 3f 8d 5f b6 3f d1 86 01 c0
       -2.294579 0.5793742 1.424791 -2.0238535
000020 95 1a 12 3f 4f 3c 0d bf 2e 33 d7 3e ce 4a 67 bf
       0.5707181 -0.5517015 0.42031235 -0.9034852
000030 f3 45 59 bd 18 03 81 bf 0e f5 42 3e d7 dd 3b 3e
       -0.053045224 -1.0079069 0.19038793 0.18346344
000040 7a 75 86 3e 02 8a 10 40 c6 94 25 3f d5 23 58 3f
       0.26261503 2.2584233 0.64680135 0.84429675
000050 94 cc 32 3f 81 5a 79 3f d0 4c 45 bf 01 e0 fc be
       0.6984341 0.97403723 -0.7707033 -0.4938965
000060 da ac 2b 3f 93 05 9a bf 1f 9d 8b be 93 0e 12 be
       0.67060626 -1.2032951 -0.2726831 -0.14263372
000070 38 17 dd 3f d9 a3 03 c0 69 bc 4c bf 82 cc fa be
       1.7272711 -2.0568755 -0.7997499 -0.48984152
000080 7f e7 ae 3d a3 c8 30 3e c2 73 54 bf ab 5b c3 bf
       0.08540248 0.17264037 -0.8298913 -1.526235
000090 81 13 19 3f 82 b3 b7 bf 78 65 99 3f 16 1a 3d 3f
       0.59795386 -1.4351656 1.1984091 0.7386793
0000a0 19 20 c6 3f ee e5 12 bf bc 32 e6 bf 17 47 55 3e
       1.5478545 -0.57382095 -1.7984233 0.208279
0000b0 ed c8 8d bf c9 3f 1e bf ff 12 87 bf 73 1e 8e be
       -1.1076943 -0.6181608 -1.0552672 -0.27757606
0000c0 ef a6 b2 3e f1 62 14 3f db ea 60 3f 34 d1 11 3e
       0.34892985 0.5796347 0.8785836 0.14239961
0000d0 ee 30 b6 be b8 e7 88 bf df f4 84 bf 87 d9 0b 3f
       -0.35584205 -1.0695715 -1.0387229 0.54628795
0000e0 e0 6e af 3c 4d b6 7b 3f d3 6c 95 bf d3 8a 41 bf
       0.021415174 0.98325044 -1.1673836 -0.75602454
0000f0 93 4f 4c 40 51 93 80 be 18 85 d7 bf 68 63 68 3e
       3.1923568 -0.25112393 -1.6837492 0.2269417
000100 bb 51 ee be 94 96 8c 3f 0b a8 e5 bf 51 b7 a9 3d
       -0.4654673 1.0983453 -1.7941908 0.08286918
000110 a6 9a 7c be 39 ac 80 bf c8 2d 48 bf e6 7b e3 bd
       -0.24668369 -1.0052558 -0.78194857 -0.11107616
000120 ef 17 37 bf 3c 49 71 bf 60 37 11 3e ef af e2 3e
       -0.71520895 -0.9425237 0.1418128 0.44274852
000130 38 0d e0 3e 8e cf a1 3f 96 4c 68 bf 41 82 f7 be
       0.43760085 1.2641466 -0.9074186 -0.48341563
000140 ea 87 70 3f 5a 11 86 bf 4a 4f 54 3f e5 8f 3c 3f
       0.9395739 -1.0474045 0.82933486 0.73657066
000150 38 67 ed bf a3 01 4e 3f fb bc 26 bf 75 cf 72 3f
       -1.8547125 0.8047125 -0.6513211 0.94847804
000160 7e 20 3d bf 3a fa bc bf a8 a6 b9 3f 03 b1 26 3e
       -0.73877704 -1.4763863 1.4503984 0.16278462
000170 2c 4c be 3e fe 50 c0 3f 97 f5 b5 3f 56 fe 4f 3f
       0.3716749 1.5024717 1.4215573 0.8124746
000180 91 b0 1b 3f 8e ad c6 3f 62 6b 48 3f e2 ae e3 be
       0.60816294 1.5521715 0.78288853 -0.44469362
000190 77 ba 00 be 72 51 22 3d a6 bf 5b 3d 3a f3 9f 3f
       -0.1257113 0.039628454 0.053649567 1.2496102
0001a0 ce d7 83 bf 8e 02 14 bf 04 7c 81 be c2 b0 a5 bf
       -1.0300233 -0.578164 -0.2528993 -1.2944567
0001b0 38 a6 ff bd 59 34 b6 3e 4a 4f dc 3f 5d db f0 bd
       -0.124828756 0.35586813 1.7211697 -0.1176059
0001c0 e4 8c c9 3f c5 95 b8 bf a2 d0 92 bd 25 b7 8e 3f
       1.5746121 -1.4420706 -0.071687 1.1149641
0001d0 67 ad 63 3f 1a 76 3e 3f f9 24 1d c0 ec 67 2a 3f
       0.88936466 0.7439896 -2.4553816 0.6656482
0001e0 86 10 f5 3e 0a 83 41 be 34 eb 80 bf ca e1 b5 3d
       0.4786417 -0.18897644 -1.0071778 0.088809565
0001f0 61 f8 d9 be 24 e6 59 bf 77 ec 98 be 29 cc 72 bf
       -0.4257231 -0.8511679 -0.29867908 -0.94842774
000200 30 6f 84 3f 2d 4b 15 3f ca c8 01 3f 5c 7c f7 be
       1.0346432 0.58317834 0.50697005 -0.48337066
000210 45 15 fa 3f 86 3f b3 be f5 23 60 3e f4 ff d6 3e
       1.9537741 -0.35009402 0.21888717 0.41992152
000220 b2 48 ea 3f a1 2a 38 bc 00 d7 7c be d5 37 28 bf
       1.8303435 -0.011240632 -0.24691391 -0.6571019
000230 99 d5 1a be ba d5 9e be c3 f0 f2 3e 61 32 52 3e
       -0.15120544 -0.31022435 0.47449312 0.2052703
000240 4a 10 64 3f c0 65 e4 3f aa 52 c9 bf 67 a3 f1 be
       0.89087355 1.7843552 -1.5728352 -0.4719498
000250 43 86 24 3f ca 97 89 bf dc 78 28 bf d6 c1 0b 40
       0.6426737 -1.0749447 -0.65809417 2.1837058
000260 28 ef 84 3e 2d 10 95 3f 6a 36 75 bf fc a8 c9 3f
       0.25963712 1.1645561 -0.95786154 1.5754695
000270 23 8a 46 bf e6 e9 be bf c3 44 82 bf e0 98 2a c0
       -0.7755453 -1.491513 -1.0177234 -2.6655807
000280 49 52 f0 be 3f 0d 84 bf 25 65 0f bf ca 66 a3 bf
       -0.4693778 -1.0316542 -0.5601371 -1.2765744
000290 b3 65 80 be 66 0e 5b bf ce 64 a9 bf 7d 9f 92 bc
       -0.2507759 -0.85568845 -1.3233888 -0.017898316
0002a0 fb 28 1a be f9 e4 9a 3f 5f b7 c2 bf 63 d6 5b bf
       -0.15054695 1.2101127 -1.521221 -0.85874003
0002b0 fd 95 67 be ff 82 ff 3f 2f bf aa bd da 30 74 3e
       -0.2261581 1.9961852 -0.083372466 0.2384676
0002c0 15 f4 41 be 61 90 a5 bf 9a 46 87 3e 7d 17 22 bf
       -0.18940766 -1.2934686 0.26421052 -0.6331709
0002d0 6a a5 f0 3e 0c 79 6a bf 04 67 c3 3e c0 d4 04 3e
       0.470012 -0.9159095 0.38164532 0.12971783
0002e0 51 68 88 3d 93 da 6a 3e ca a7 1d c0 64 1e fe be
       0.06660522 0.22934942 -2.463366 -0.4963256
0002f0 f7 7d e7 bf 84 d3 16 3f 51 40 5c 3f 3c 73 9b 3f
       -1.8085316 0.589165 0.8603564 1.2144542
000300 2b 9c a6 3f 8a a6 f5 be 1e 5c cc bf d2 e7 24 3f
       1.3016409 -0.47978622 -1.5965612 0.6441623
000310 aa ff 2d be 68 c1 c1 bf 19 76 8a bf 05 e5 01 c0
       -0.1699206 -1.5137148 -1.081729 -2.0296032
000320 86 74 34 be 42 aa 39 3f 43 b5 88 bf e8 b5 ee be
       -0.17622575 0.7252542 -1.0680317 -0.46623158
000330 3f 48 d2 be 44 81 c6 be 67 c3 27 bf 67 1f 40 bf
       -0.41070744 -0.38770497 -0.65532535 -0.75047916
000340 3e b1 94 bf 4e af b6 be c0 49 09 3f 8a 7b 50 bc
       -1.161659 -0.35680622 0.5362816 -0.0127247665
000350 ab 43 65 3e 6c f9 6c 3f 12 b6 a9 bf 6e e3 0b 3e
       0.22389095 0.9256809 -1.3258688 0.13660976
000360 32 5c b6 3d 4e 44 57 be dd d1 f4 3e 10 e8 23 3e
       0.089043036 -0.2102215 0.47816363 0.16006494
000370 8a 6a aa 3f cd 32 4d 3f 56 9a 3f 3f 73 3f 1c 3f
       1.3313763 0.8015564 0.7484487 0.61034316
000380 0c 68 1c bf a4 ad cb be 27 9f a7 be 0b 2f 40 3f
       -0.6109626 -0.39780915 -0.3273861 0.7507178
000390 dc 97 8b be 0f a9 b5 bf 55 1a 9f 3d d6 7f 2a c0
       -0.27264297 -1.4192218 0.07768694 -2.6640525
0003a0 7b 45 9c bf 9e 98 b5 bf b4 cb b9 3e 62 61 c5 3d
       -1.2208704 -1.41872 0.36288226 0.09637715
0003b0 4b de 1f 3e 7d a4 6f bf 72 96 09 be 60 86 83 3f
       0.15612142 -0.93610364 -0.13436297 1.0275383
0003c0 9c 8a 8f 3f 6f 8f 03 be a6 c7 2a 3f 0b e6 a4 bf
       1.1214175 -0.12847684 0.6671089 -1.2882704
0003d0 82 99 af 3f de 80 7b bd 53 ef 03 bf e8 d8 c6 be
       1.3718722 -0.061402194 -0.51537055 -0.3883736
0003e0 15 c2 dc be 44 33 37 bf 53 44 ba be ca 7f 14 3f
       -0.43116823 -0.715626 -0.36380252 0.5800749
0003f0 11 28 da be 9e c1 dd bf ba 9a 8c bf d9 11 a4 3f
       -0.42608693 -1.7324712 -1.0984719 1.2817947

rnn.weight_ih_l0 f4 [256, 256]
000000 8a c2 4f be d3 90 95 3c 6e c5 14 bd da dd e0 3d
       -0.20289055 0.018257534 -0.036321096 0.10979815
000010 e2 9a 31 be a9 e7 42 bc f2 99 14 3e ce 14 d5 3c
       -0.1734424 -0.011896052 0.1451185 0.026010897
000020 87 47 f3 3d ac 25 c9 3b 44 4b 9b bd dc 4f d9 3d
       0.11878877 0.006138524 -0.07582715 0.10610935
000030 7d c0 96 3d 44 00 40 bc 13 94 a6 3c 91 f4 ca bd
       0.07360933 -0.011718813 0.02033428 -0.099099286
000040 a6 51 90 3c 08 54 0c be 88 00 02 bd b7 b5 e8 bc
       0.017617058 -0.1370393 -0.031738788 -0.02840696
000050 24 69 63 bd 66 ee 36 be a6 b8 82 bd 85 56 17 bd
       -0.05552019 -0.1786438 -0.06382875 -0.036947746
000060 45 4b 93 3b 7e ea 11 be 49 42 ed bd 08 56 2e 3c
       0.004495057 -0.14249608 -0.115849085 0.010640629
000070 fb bb 0a 3d da eb 5c bd 37 fa e0 bc cb 32 54 bc
       0.03387068 -0.053935863 -0.027463062 -0.012951563
000080 e8 d1 1c 3e 40 cb 9e 3d 7c c2 6e bd 0a ee 0d bd
       0.15314448 0.077536106 -0.058290944 -0.03465084
000090 78 ca d7 3d ad 52 f2 3c 29 a0 dd bd d6 d2 60 3d
       0.10536665 0.029580439 -0.10821564 0.05488857
0000a0 c4 ff 78 3d b2 c5 a0 bd e9 99 11 be 92 ec e9 3c
       0.060790792 -0.078502074 -0.14218868 0.028555188
0000b0 dd 65 c2 3d eb 73 95 3d 95 7f 15 be 84 50 f2 bd
       0.09492085 0.072975 -0.1459945 -0.118317634
0000c0 62 32 89 3d 0f 8f 13 3d 5d 13 0e bd 04 17 47 bc
       0.06699063 0.036025103 -0.034686435 -0.012151483
0000d0 b3 94 48 3d b0 dc 01 3e 59 1f 22 3a b2 cc 23 bd
       0.048969936 0.12681842 0.0006184481 -0.039990135
0000e0 2d 07 ef bd 6e 1d c3 ba 53 9e bd 3d fd fa 95 3d
       -0.116712905 -0.001488609 0.092587136 0.07323263
0000f0 c3 25 93 bd 77 dc 6a be 9d 87 2b be 6b 49 1b be
       -0.07184937 -0.22935663 -0.16750951 -0.15164725
000100 90 43 e1 3d 27 3e d4 3d 33 9a c4 bd 18 d4 c8 3c
       0.10999215 0.10363417 -0.09599724 0.024515197
000110 71 72 43 3e d9 8f 52 3b 29 d0 58 bd 3f 32 63 3d
       0.19086625 0.0032129197 -0.052932892 0.05546784
000120 c4 2f 28 3d 70 28 a1 3b 46 38 8b 3d f9 60 ca bd
       0.041061178 0.0049181506 0.06797843 -0.09881777
000130 05 ac 03 be b6 ac ba 3d eb 1f 70 bd 39 26 8a bd
       -0.12858589 0.09114973 -0.05862419 -0.06745572
000140 25 4d 74 bd 70 de 7c bd 5e 0c 2d be 45 b8 09 3b
       -0.059643883 -0.06173557 -0.16899249 0.0021014374
000150 7f 49 a4 bd 40 21 cd bc 45 89 6f 3d 65 8b 3b be
       -0.08021831 -0.025040269 0.05848052 -0.18314894
000160 29 da 14 bd d0 8f 0e bc ba a9 e7 3c 9d 1b 08 3e
       -0.036340866 -0.00870128 0.028279174 0.13291784
000170 a3 11 25 bd 57 05 00 3e d4 01 4e 3d cd 54 15 3d
       -0.040300023 0.12502037 0.050294712 0.036457825
000180 6c 98 c5 3c 8e 92 52 3c 46 1e 83 3d 83 f5 aa bd
       0.024120532 0.012852324 0.064022586 -0.08347609
000190 75 80 eb bd c7 53 57 3b fd b7 4d bd 4d 74 15 3e
       -0.114991106 0.0032856332 -0.050224293 0.14595146
0001a0 26 86 8b 3d bb 9f 61 3b 22 c8 9f bd 71 6a a0 bd
       0.06812696 0.0034427482 -0.07801844 -0.07832802
0001b0 6d 8b b7 bb 5d 56 c8 3d ca 8e 8c bb d0 7e 8e 3d
       -0.0056013376 0.097820975 -0.0042894827 0.06957781
0001c0 6b 1a 5a bc df 6d af 3d 67 a4 f6 3b 4e b2 89 3d
       -0.013311963 0.08565878 0.0075269225 0.06723462
0001d0 c0 ab af 3d 25 a8 78 bd 69 b0 09 3d 1d b0 69 3d
       0.085776806 -0.06070723 0.033615503 0.05705272
0001e0 4c 50 d3 3c c4 81 7d bd d7 b1 8a 3d 65 42 28 bd
       0.025795124 -0.061891332 0.067722015 -0.041078944
0001f0 04 40 ab bd 10 c7 11 be 91 1d c7 3c e7 ca 12 bd
       -0.083618194 -0.14236093 0.02430609 -0.035838034
000200 0b a5 c3 bd 0d ea 65 bd f6 da 9d 3d 61 d4 58 3d
       -0.09552964 -0.05613141 0.07707779 0.052936915
000210 61 11 f2 3c 8d 5b a5 3d 89 ae 84 bc a7 e8 57 bd
       0.029549303 0.080741026 -0.016196506 -0.05271211
000220 46 90 af bd 88 12 c8 3c d7 b5 53 3e 73 5e be bd
       -0.0857244 0.024422899 0.20674835 -0.092953585
000230 53 b7 16 be 7e ed 31 3c 76 09 9a 3d 39 51 5d 3b
       -0.1471837 0.010859845 0.07521336 0.0033770336
000240 bd a9 18 3c 37 ff a9 bd 00 ae 33 bd 8a b5 f8 bd
       0.0093178125 -0.083006315 -0.04386711 -0.12144001
000250 be 23 8c 3d f5 6a d7 bc 51 51 11 3e ff d4 58 3d
       0.06842755 -0.026296118 0.14191176 0.052937504
000260 f1 4d f2 3d 51 fa cb bc a6 b1 55 3d 28 65 7d bd
       0.118312724 -0.024899634 0.052171372 -0.06186405
000270 40 f5 c4 bd 98 8e ac 3d 9a 62 08 bd 49 da d0 bd
       -0.0961709 0.08425635 -0.03329716 -0.101978846
000280 e7 53 2c 3d 83 16 d0 3c c5 5d 3b bd f8 50 fc bc
       0.042072203 0.02540136 -0.045743722 -0.030800328
000290 5a 5f a7 bb f1 78 a4 3d 78 78 57 bd 65 8c ff 3b
       -0.0051078023 0.0803088 -0.052605122 0.0077987188
0002a0 09 dd 99 bb 51 35 d6 bc 1a 39 43 be 36 16 c9 bd
       -0.004695539 -0.02614847 -0.19064751 -0.098186895
0002b0 6e e1 00 bd f2 28 34 bc cc 92 a0 3d cb 39 b4 3c
       -0.031464987 -0.01099609 0.07840499 0.022000214
0002c0 9c 9d 48 ba 93 1d 81 3d 32 45 06 3d e4 3c e2 bc
       -0.000765288 0.06304469 0.032780834 -0.027616926
0002d0 e4 37 56 bd 1b ef f2 bd 29 c4 e9 3d c9 54 36 bd
       -0.052299395 -0.11862012 0.11414368 -0.04451445
0002e0 04 9c 81 bd 62 26 9e 3c 21 ba ca bd 4c 25 c0 3d
       -0.06328586 0.019305412 -0.098987825 0.09382114
0002f0 47 1d 01 be 76 43 2a bd 62 eb d9 3d c1 0b ac 3d
       -0.12608825 -0.041568242 0.10640599 0.084006794
000300 ea 14 f8 3d 7f 2f 7e bc 21 f5 61 3c ee f0 34 bd
       0.12113364 -0.015514254 0.013791353 -0.04417508
000310 f2 92 26 bd 67 68 ae bd 77 5f 43 3d da 35 e7 bc
       -0.04066748 -0.08516007 0.047698464 -0.02822392
000320 b3 f2 d8 3c 75 bf 0c bd 1e 1e 15 bd 68 7f cd bd
       0.026482916 -0.034362275 -0.036405675 -0.100340664
000330 af f9 e2 3d e9 6d 08 be d1 6d 7f 3c 31 8d 53 be
       0.110827796 -0.13323177 0.015590147 -0.20659329
000340 b5 93 12 be 96 eb 67 bd 4c b0 97 3d 52 8f 14 3b
       -0.14314158 -0.056621157 0.07406673 0.0022668433
000350 9a 3c ef bc 61 02 8f 3d 66 24 03 be 86 d2 ca 3c
       -0.029203702 0.069828756 -0.12806854 0.024758589
000360 d2 f1 f2 3c e5 75 87 3b c6 f7 c7 bd 8b 88 4f 3d
       0.029656325 0.004133927 -0.09764056 0.050667327
000370 1a fa 68 bd 9b e1 86 bd 8a fe a0 bd dd 47 27 3e
       -0.05687914 -0.065859996 -0.078610495 0.16336007
000380 c7 f1 8e bd 45 75 a7 bd c6 ec 8e bd 02 f8 b6 bd
       -0.06979709 -0.08176664 -0.06978755 -0.089340225
000390 48 18 c6 3c 68 8b 95 3d e1 17 ab 3b e4 c5 b2 3d
       0.0241815 0.0730198 0.0052213524 0.08729151
0003a0 64 68 c0 3c 10 57 1d be 29 e8 0a be bf 7c 7a 3c
       0.023487277 -0.15365243 -0.13565125 0.015288531
0003b0 92 17 e0 bd 04 b6 cf 3d 57 df 5d 3d e3 66 7b bc
       -0.10941996 0.101421386 0.05416807 -0.015344354
0003c0 2a 9c fb 3c ff 26 80 bc 70 51 9c bd c7 1d 3a bd
       0.030714113 -0.015643595 -0.076327205 -0.045438554
0003d0 05 0a 75 bc 00 ab ee 3c df 53 08 bd e5 28 76 bd
       -0.014956002 0.029134274 -0.03328311 -0.060097594
0003e0 0c 1b c9 bd e3 30 47 bd 8c 8b b9 bd 03 26 0c be
       -0.09819612 -0.048630606 -0.090598196 -0.13686375
0003f0 ed 0a f6 3c 3d 54 54 bd 34 be d2 bd 10 4f 5f 3d
       0.030034507 -0.05183815 -0.102901846 0.05451876

rnn.weight_hh_l0 f4 [256, 256]
000000 43 5d 7d 3c 21 b1 b7 bd 24 84 38 be 47 7b f3 bd
       0.01546413 -0.089693315 -0.18019158 -0.11888748
000010 aa 82 8c 3e 02 76 dd 3d 33 a0 b2 be 61 48 b5 bd
       0.2744344 0.10813524 -0.34887847 -0.08851696
000020 ac c2 3f 3e 5b d7 70 3e 86 6b 9f 3d 9c b9 32 3e
       0.18726605 0.23519652 0.0778418 0.17453617
000030 ed 2c 57 be 2d 8a 1e bd 73 20 34 3d c5 32 a8 bd
       -0.21013232 -0.038705993 0.04397626 -0.082128085
000040 60 a0 c3 3b c6 c9 d6 bd f1 70 e1 bd b9 6e 85 3d
       0.005970046 -0.10487704 -0.1100787 0.06515259
000050 43 96 75 b8 79 a2 7d be 3f 06 24 3e 50 d9 cf 3c
       -5.8552494e-05 -0.2476901 0.16018008 0.025372177
000060 9b 90 f7 3d f7 40 1c be 09 9b a9 3d 2c 55 9a bd
       0.12088128 -0.15259157 0.08281524 -0.075357765
000070 90 f0 c0 3c 27 43 65 be 11 54 59 3c cb 03 75 bd
       0.02355221 -0.22388898 0.013264672 -0.05981807
000080 43 23 56 3e 24 70 fb bc e1 4e 04 bc d3 03 93 bd
       0.20911889 -0.030693121 -0.008075447 -0.07178464
000090 b8 c8 cf 3c 24 bc 2a 3e ec bc 86 bd 40 8e 43 bc
       0.025364265 0.16673332 -0.06579003 -0.0119357705
0000a0 94 c5 24 3e 5f 11 c0 3d 8f 7e b6 bc 4c 96 89 be
       0.16090995 0.09378313 -0.022277145 -0.2687248
0000b0 49 24 c3 3d 99 ef be bc da f3 95 3d 52 a3 29 bd
       0.09528405 -0.023307608 0.073219016 -0.04141552
0000c0 2a c8 c2 be b1 b9 60 bd bc 0a cc 3d 21 44 2d bd
       -0.38043338 -0.05486459 0.09962985 -0.0423013
0000d0 2c 25 c0 3c 3f c2 f5 bc 2f 24 46 bd 18 5b 14 3e
       0.023455225 -0.02999985 -0.04837435 0.14487875
0000e0 dd 6b f2 bc e0 69 4e 3c ed 6c 10 be 96 22 32 3d
       -0.029592449 0.012598485 -0.14104052 0.043490015
0000f0 a3 c1 c8 3c e8 ed 55 3d 15 c2 16 3e 47 bd 53 bb
       0.024506396 0.05222884 0.14722474 -0.0032308863
000100 5e 08 98 3d 38 eb 87 bd 44 14 60 3d 2c 5c 8c bd
       0.07423471 -0.06636661 0.054706827 -0.06853518
000110 4f 46 18 be c3 d0 e8 bd 4a 38 6f bc d1 a4 96 be
       -0.1487057 -0.11367943 -0.014600823 -0.2942262
000120 09 c9 32 be de 25 60 3e 5c 40 1f be 1a 96 d2 3d
       -0.17459501 0.21889445 -0.15551895 0.10282536
000130 fd e2 b9 3d 49 52 15 3e 97 dd f1 bd 76 2f ae 3d
       0.09076498 0.1458217 -0.11809843 0.08505146
000140 49 10 82 3d 5b c0 d8 bd 22 8a 95 3d e0 a9 81 3d
       0.063507624 -0.10583564 0.07301737 0.06331229
000150 03 b8 91 bd 0e 2d 16 be d0 be 18 bd bb 40 d9 bd
       -0.071151756 -0.14665624 -0.037291348 -0.106080495
000160 a3 e1 68 be 8f f6 86 be d4 85 97 3d a9 0a 98 bc
       -0.22742324 -0.26359984 0.073985726 -0.01855977
000170 ef 01 20 bd f7 b2 92 be c9 00 f0 3c fa 0b c5 bc
       -0.039064344 -0.28652164 0.02929725 -0.024053562
000180 eb e0 07 3d 99 d3 65 3e b1 cc 32 be ba a5 eb 3c
       0.033173483 0.22444 -0.17460896 0.028765548
000190 24 92 13 3d 95 24 bb 3d 24 15 ad bd 3a 5d a6 be
       0.036028042 0.09137837 -0.08451298 -0.32493
0001a0 20 f2 c4 3d ac 34 59 be 25 2a 17 be a5 db 8f bd
       0.09616494 -0.21211499 -0.1476217 -0.07024316
0001b0 96 28 ef bd e8 1f 39 bc c1 f5 52 bd 48 66 ed 3b
       -0.11677663 -0.011299111 -0.0515039 0.007244859
0001c0 ad 05 38 3d 49 3d 0e bd be f4 51 3e 25 b7 a6 ba
       0.044927288 -0.034726415 0.20503518 -0.0012719376
0001d0 09 66 a5 3d ed 6b 34 3d 38 94 a6 bd e7 71 ad bd
       0.08076102 0.04404824 -0.08133739 -0.08468991
0001e0 a9 a5 ce 3c b3 45 06 3e 2e 1a 6f 3c 13 b2 bd bc
       0.025225477 0.13112526 0.014593644 -0.023156201
0001f0 26 1a 4b be 40 e4 83 bb d7 5a 40 bd f2 13 11 be
       -0.19834194 -0.0040250123 -0.04696163 -0.14167765
000200 ec f1 35 3d df 9b ea 3c 6a 8c 9c 3d 88 25 60 3c
       0.044420168 0.028638778 0.07643969 0.013680823
000210 31 30 3e bc b8 99 29 bc aa 63 5a 3e ce b0 9b bd
       -0.011608169 -0.010351591 0.21327081 -0.07602082
000220 e7 e6 1e 3e f6 2e 57 3e af ce 1e bc 65 90 07 bd
       0.1551777 0.21014008 -0.009692832 -0.03309669
000230 cb 66 c0 3d 11 c8 13 bb 8c 8b 32 3c ec a6 b6 bd
       0.09394606 -0.0022549669 0.010897528 -0.089185566
000240 82 70 ae be 16 98 d9 bc ff cd 6f be 52 4a 23 be
       -0.34070212 -0.026561778 -0.23418425 -0.1594632
000250 f5 62 a3 bd 81 e7 ba ba 30 98 0c 3e ec 52 21 3e
       -0.07977859 -0.0014259667 0.1372993 0.15754288
000260 d9 8f 0e be f5 82 07 bc 53 6e 7b bd a8 a0 a6 3d
       -0.13922061 -0.008270969 -0.06138451 0.081361115
000270 f6 e3 ba 3e 57 03 90 3d 9b c7 53 be ab c0 b8 3d
       0.36502045 0.07031887 -0.20681612 0.090211235
000280 d2 48 15 be df 18 da bd dd c7 52 3d c0 cf c5 bd
       -0.1457856 -0.10649275 0.051460136 -0.09658766
000290 35 03 c6 bc 90 c8 17 3e f1 95 e9 bd 72 b0 e1 bd
       -0.024171451 0.14822602 -0.11405552 -0.110199824
0002a0 af 3f 33 b9 a2 d1 63 bc 74 16 4f bc 4d 09 f4 bd
       -0.00017094494 -0.013904961 -0.012639631 -0.119158365
0002b0 c1 07 14 3e f5 61 be bd 1d df f9 3c ae 14 f8 bd
       0.14456083 -0.092960276 0.030501897 -0.12113319
0002c0 b9 96 a5 3c 6f aa c3 3d 5b d4 4e 3e 7c ff 5a be
       0.020213472 0.09553992 0.20198195 -0.21386522
0002d0 11 aa 40 3e a7 f9 80 3b ce e8 a4 be fc 16 16 be
       0.18814875 0.003936011 -0.32208866 -0.14657205
0002e0 54 28 cf bc e8 eb 2e bd ba 46 38 3e d8 66 f1 3d
       -0.025287785 -0.042705446 0.1799573 0.11787194
0002f0 5d 8e 8a be 33 83 5e bc 74 a7 1f be 22 cb 92 3e
       -0.2706174 -0.013581085 -0.15591222 0.28670603
000300 d5 df 19 be fb 49 53 be ce 0d 0b 3d f2 c4 f1 3d
       -0.15026791 -0.2063369 0.033948712 0.118051425
000310 63 9d 5c bb 87 09 b8 bd d2 87 90 3c 43 89 5d 3e
       -0.0033663146 -0.08986192 0.01764289 0.21634392
000320 8d 03 91 3d f2 f2 9e be d4 e1 e5 bc f4 1b a6 3d
       0.070807554 -0.31044728 -0.028061785 0.081108004
000330 6d 8a 28 be d0 c7 bc bd ab c6 ae bc 04 bb 55 3e
       -0.16459055 -0.09217799 -0.021334967 0.20872122
000340 1c b8 03 be a5 9f b6 bd cb 29 19 be 3d 7c 34 ba
       -0.12863201 -0.089171685 -0.14957349 -0.0006884968
000350 e1 01 29 be 88 fc 33 3e 01 1d 07 3e 19 a1 a0 be
       -0.16504623 0.17576802 0.13194658 -0.31372908
000360 60 d4 cb 3d 5b 81 8e 3e 30 e3 45 bd 82 4b 2b 3e
       0.09952617 0.27833065 -0.048312366 0.16728023
000370 98 7e 76 bd 1b 40 29 be 31 d6 9a bd da 2a d7 3d
       -0.060179323 -0.1652836 -0.07560385 0.1050622
000380 fa 36 c0 bb a0 91 9a bc 10 c8 31 3c c4 76 4c 3d
       -0.0058659287 -0.018868268 0.010850921 0.04991795
000390 b7 b1 f5 bd 38 c0 92 bd 75 48 46 be f4 a6 63 be
       -0.11996787 -0.07165569 -0.19363578 -0.22231656
0003a0 62 1c 06 3c 1d 7f 4c 3d 8c 34 76 be c9 f1 c9 3d
       0.008185478 0.049925912 -0.24043483 0.0986057
0003b0 6b 25 8c bd d2 9c c9 3d 18 b3 40 bd 3a dd 9d bc
       -0.068430744 0.09844364 -0.047045797 -0.019270528
0003c0 b9 0a f5 3c b5 9b 46 3e de dd f2 bd e1 15 ba bb
       0.02991234 0.19395335 -0.11858724 -0.0056788777
0003d0 aa 87 41 3e 56 2e df bc c3 a9 ad 3d 68 d6 4c bd
       0.18899408 -0.027243774 0.08479645 -0.05000916
0003e0 3a 5b 09 bc c6 1a 0c be e3 fe 28 3e e6 5c 07 3c
       -0.0083835665 -0.13682088 0.16503482 0.008261895
0003f0 b5 30 c9 3d a0 f9 2e be 06 ee ad 3d 46 f0 1f 3e
       0.09823743 -0.17087412 0.08492665 0.15619001

rnn.bias_ih_l0 f4 [256]
000000 42 4e e7 bd c4 c6 d6 3d e2 1c ee bd e9 10 97 3d
       -0.11294223 0.1048713 -0.11626603 0.07376272
000010 cd 0b 3b bd b8 af bd 3d f1 88 0d 3d 6c 63 9b bd
       -0.04566555 0.09262031 0.034554426 -0.075873226
000020 87 15 45 bd 82 ca 87 bd a6 90 9e 3c 23 5b 2f be
       -0.048116233 -0.06630422 0.019356083 -0.1712461
000030 38 0d 40 3e 72 9e 1b be ce fa 1d 3d 0d 6b 61 3e
       0.18755043 -0.15197161 0.038569264 0.22013493
000040 53 b4 68 3d 05 2f e2 bd 52 fa 1b 3e f3 d7 26 3e
       0.056812596 -0.110441245 0.15232208 0.16293316
000050 36 f6 9f bb 67 3b 5e 3a 19 d9 3a 3c d9 ab 40 3d
       -0.0048816456 0.00084774796 0.011404299 0.047038887
000060 e9 71 9a bd 8a a5 0b bc 85 4b 29 3b 1a e1 ce bd
       -0.07541258 -0.008523354 0.0025832367 -0.101015285
000070 71 ab 9c bd e9 7d 4c bd 92 a0 34 bd 17 ad 91 bc
       -0.07649887 -0.049924765 -0.044098444 -0.017782731
000080 38 43 7d be be 6d b8 bd c8 12 0f bc 5b 9b 23 3e
       -0.24732673 -0.09005307 -0.008732505 0.15977232
000090 51 c3 8d 3d 46 04 d2 3d 47 db a7 3c 15 a7 fe bd
       0.06922019 0.10254721 0.020490302 -0.12434212
0000a0 49 57 8c bd 1a 37 f3 bc 7f d3 ce bd a3 98 76 3d
       -0.06852586 -0.02968936 -0.100989334 0.06020416
0000b0 fc ef 76 bc 0f 68 3e 3d 88 7f 2a bd 93 64 c1 bd
       -0.015071865 0.046485957 -0.04162553 -0.09443011
0000c0 ac 78 ed 3d b7 00 34 3d b8 dd 01 bd f8 ca 3f be
       0.11595282 0.043945994 -0.031705588 -0.1872977
0000d0 d4 d4 d7 bd f6 33 af 3d 10 21 e5 bd 7a 68 80 bd
       -0.105386406 0.08554833 -0.11187947 -0.06269927
0000e0 af 5e 9e bd 4e a4 6c bd b0 c9 a5 bd ce af d2 3d
       -0.07732903 -0.05777388 -0.080951095 0.10287438
0000f0 72 71 16 bd 1a 9c 1d 3d 88 7a ff 3d 03 5e d5 bc
       -0.036729284 0.03847895 0.12474543 -0.026045805
000100 0f 16 cd 3d 5e ff b2 3d 9b 4b ac bc 8d 34 88 3d
       0.10013973 0.08740114 -0.021032145 0.06650648
000110 24 1a 45 bd 8b ea 17 3c 4a 36 d7 3d 65 e7 90 3e
       -0.048120633 0.009272228 0.10508402 0.2830154
000120 cb f1 fa 3d 49 26 ba 3b fa 20 e5 3c 08 8d 0b 3d
       0.122531496 0.0056808335 0.027969826 0.034070045
000130 f1 13 e5 3b cf d7 31 bd 81 1f 5d bd fd ee 2b 3d
       0.0069909026 -0.0434187 -0.053985123 0.041975964
000140 65 77 f7 bd a0 73 1b 3d cd 98 af 3d 87 a9 fd bd
       -0.120833196 0.037952065 0.08574066 -0.123858504
000150 f3 bf 64 bd fe 8f 9b bd 8b 9c 16 3d 8c 5b 1a bc
       -0.05584712 -0.07595824 0.036770385 -0.009421241
000160 0a c0 93 bc 96 ee a7 bd bb d7 55 3d a6 e9 0e 3a
       -0.018035907 -0.081998035 0.05220769 0.00054516864
000170 d7 01 62 bd ec 08 cc 3d c4 1d 41 3e cb ab 15 bc
       -0.055177536 0.09962639 0.18859011 -0.009135197
000180 49 0a 81 3d ab 5a 86 3c 83 68 83 bd 5d a3 66 bd
       0.0630079 0.016400656 -0.064164184 -0.05630814
000190 54 44 15 bd 59 62 ff 3c ce 2b a4 bd 4a 05 7f bd
       -0.036442116 0.031174826 -0.080161676 -0.062260903
0001a0 82 99 e9 3c f1 0d 4b 3b 60 5e a5 bd 9f 14 07 3e
       0.028515581 0.0030983652 -0.08074641 0.1319146
0001b0 57 99 95 3d 31 7f ee 3d b8 cc eb 3b 78 21 9d 3d
       0.07304638 0.116453536 0.0071960352 0.07672399
0001c0 7b 40 5a be a5 2b 40 3d 82 42 cc 3d 0d 00 b9 3d
       -0.2131366 0.046916623 0.09973623 0.09033213
0001d0 a8 dd 0f bc c3 c0 42 3d 5d a6 40 bc 4e 61 a7 bc
       -0.008780874 0.047547113 -0.011758414 -0.02043214
0001e0 f2 00 98 bc 85 29 57 3e c7 fe 70 3d 9c f1 c3 bd
       -0.018555138 0.21011932 0.058836725 -0.09567568
0001f0 c5 d0 af 3d 30 c4 95 bb 53 51 c9 bc 08 2f e8 bd
       0.085847415 -0.0045705065 -0.024574911 -0.113370955
000200 38 01 d9 bd c0 17 f7 bd cf c0 b4 3d 46 cd 1d 3d
       -0.105959356 -0.12065077 0.08825838 0.038525842
000210 5e c7 05 3e 90 91 6b 3d 60 a9 44 be 58 fc f6 3d
       0.13064334 0.057511866 -0.19205236 0.120598495
000220 33 48 96 3d 23 26 11 3e e2 92 b3 bd 62 cd 87 bd
       0.0733799 0.14174704 -0.0876825 -0.066309705
000230 cb e6 ea 3d e6 03 05 3e 7f 84 e6 bd 42 04 ca 3c
       0.114698015 0.12989768 -0.112557404 0.024660233
000240 5a d6 9f bc b7 11 ba 3d d5 14 36 be 4c 9b 38 bd
       -0.01951139 0.0908541 -0.17781384 -0.045069978
000250 f3 52 44 3d bb ed 89 3d 3c bf dc 3d 5e 1d 28 be
       0.04793067 0.067347966 0.107786626 -0.16417453
000260 31 bd ed bc c0 8d 04 be a6 87 b9 3d ad 62 7c 3d
       -0.029020878 -0.12944698 0.09059076 0.061617542
000270 e8 b8 ae bd d5 0f 45 bd 3f 48 e3 bd 43 e0 8a bd
       -0.08531362 -0.0481108 -0.11097764 -0.06781056
000280 e4 05 08 3d 19 79 f8 bc 7b 6c 91 bd 18 95 fc 3d
       0.033208743 -0.030331181 -0.07100769 0.12333125
000290 c5 81 d9 3d 8b 93 e0 3c 74 07 07 3e 5a 39 a3 3c
       0.10620455 0.027414104 0.13186437 0.019924808
0002a0 16 79 b4 bd fd ae dc 3c 9d 67 1e bd fa 36 0d bc
       -0.08812158 0.02693891 -0.038673032 -0.008619064
0002b0 cd b7 0a be 29 84 03 be c3 d5 b6 3d 04 e0 18 3e
       -0.13546677 -0.12843384 0.089274906 0.14929205
0002c0 44 2e 66 be 13 42 42 3d bf e9 0f 3d 44 01 b7 3d
       -0.22478586 0.047426295 0.035135027 0.08935788
0002d0 fd 8d 2e 3e 48 02 5e 3d 41 00 f4 bd d6 f8 60 3d
       0.17046352 0.054201394 -0.11914111 0.05492481
0002e0 2f 65 df bd 8a db a2 3d 28 a0 69 bd e8 d9 fb bd
       -0.10907971 0.0795203 -0.057037503 -0.12297422
0002f0 aa f7 15 bd 94 a6 2f 3c cf 4a 0c be 98 b2 2c be
       -0.036613144 0.010720868 -0.13700412 -0.16865003
000300 3e 5a 7c bd 88 4f 00 be 27 33 1d 3b 1b 8e 44 3d
       -0.0616095 -0.12530339 0.0023986788 0.047987085
000310 b2 53 b0 3d 82 72 72 bd 36 a2 d0 bd 07 6a 0d be
       0.086097136 -0.059191234 -0.10187189 -0.13809977
000320 99 70 d0 bd 20 55 0e bc 77 42 65 bd 84 22 57 be
       -0.10177726 -0.008687288 -0.05597159 -0.2100926
000330 ef 93 fc bc 5e 7d a9 bc 92 02 19 3e e3 65 42 3d
       -0.030832259 -0.020689663 0.14942387 0.047460448
000340 82 e5 31 3e 04 57 19 be 52 96 f2 bd f6 d5 72 bc
       0.17372707 -0.149746 -0.118450776 -0.01482152
000350 ab 1c 1a bd 49 ae 1f 3d f2 6f 6c bd da b0 4b 3d
       -0.037624996 0.03898457 -0.057723947 0.049729206
000360 22 66 ee 3d 2a 61 b0 3c f2 ef 32 3c f6 75 91 3d
       0.11640574 0.021530706 0.010921465 0.071025774
000370 0b 13 32 3c 34 0e c1 3d db 1c ef 3b 6c e2 94 bb
       0.010868798 0.09426537 0.007297141 -0.004543593
000380 9f 53 c9 bd 0b b6 b9 3d 53 b7 69 bd ef b7 51 3d
       -0.098304026 0.09067925 -0.057059597 0.051200803
000390 55 73 af 3d c4 88 0c be 5c a7 d4 3d 77 29 c8 3c
       0.0856692 -0.13724047 0.10383484 0.024433834
0003a0 ec 5b 2d 3d 07 71 7b 3c 8c 8a 68 3d ac b8 00 bd
       0.04232399 0.015346772 0.056772754 -0.031426117
0003b0 bc 8f 43 3e 13 81 34 3e e6 70 59 3d 06 bb 00 3d
       0.19097799 0.17627363 0.053086184 0.03142836
0003c0 5e f2 be bd 12 2f 39 3e 92 57 57 3d 24 76 51 3d
       -0.093235716 0.18084362 0.052573748 0.05113806
0003d0 8a 7d 3a be 7d ee 87 bd d7 52 2c be f3 66 0a 3d
       -0.18211952 -0.06637285 -0.16828476 0.033789586
0003e0 59 d6 5d 3c ff 70 bc bd 59 1b 41 3d f4 c8 6e bd
       0.013539874 -0.0920124 0.04714522 -0.058297113
0003f0 f5 46 17 bd 23 7f 09 3d 71 1f 0c bc b2 d5 d4 3d
       -0.036932904 0.033568513 -0.008552418 0.10392322

rnn.bias_hh_l0 f4 [256]
000000 a4 cc 65 be e3 c7 e0 3d fe 35 d6 bc 93 14 1f 3d
       -0.22441345 0.10975625 -0.026148792 0.03883798
000010 3e 75 46 bd 20 21 4e 3d 31 fb 63 bd d9 de 90 bc
       -0.048451655 0.05032456 -0.055659477 -0.017684387
000020 7e e5 8e bd 75 bf 0b be e9 14 fe 3c 4a b4 ff bd
       -0.06977366 -0.13647254 0.03101583 -0.12485559
000030 80 ac 55 3e 17 58 49 be b6 18 96 bc af f7 46 3e
       0.20866585 -0.1966251 -0.01832233 0.19430421
000040 f4 a5 d8 3d c1 a8 8e bd f1 1d ba 3d 6f 86 11 3e
       0.10578528 -0.06965781 0.09087742 0.14211439
000050 3c fa 81 bc ca 3c 91 3d a1 63 a3 3d 07 c2 5d bb
       -0.015866391 0.07091673 0.07977987 -0.0033837573
000060 7e f4 89 bd 6f a4 ee bc e7 7d 3d bd 21 35 2a bd
       -0.06736086 -0.029131142 -0.046262648 -0.041554574
000070 bf e9 9c bd da e4 0e 3c 6b 98 80 3c 2a 30 90 bd
       -0.07661771 0.008721555 0.015697679 -0.070404366
000080 a5 b1 65 be 32 d0 2e bd 4b fe 34 bd 99 01 94 3d
       -0.22431047 -0.04267902 -0.044187825 0.07226867
000090 2f 00 d6 bc 86 07 24 3d f4 e5 16 3c 25 7e 7c bd
       -0.026123134 0.040046237 0.009210099 -0.06164374
0000a0 c2 68 42 bd 0f ba 3a bd 1c 98 d3 bd ae 60 b7 3d
       -0.047463186 -0.045587596 -0.10331747 0.08953987
0000b0 fa a2 20 3b db 82 28 3b 53 9a e6 3b ab 2a 85 bd
       0.0024511204 0.0025712762 0.00703744 -0.06502279
0000c0 8a 97 88 3d fa 3f 25 3c ea a5 69 bd bb ab 47 be
       0.06669529 0.010086054 -0.057042994 -0.19499104
0000d0 08 90 56 bd 48 b7 99 bc 3c 6e b9 bd 7e c1 08 be
       -0.052383453 -0.018764153 -0.09054229 -0.13355061
0000e0 7a 63 88 bd 1e b1 9d bd 59 8a 8f bd e4 a2 05 3d
       -0.06659599 -0.07699798 -0.070088096 0.032626048
0000f0 f3 58 81 bd 47 0b 49 3d 1c 28 3b 3d 7e c9 a3 b9
       -0.06315794 0.04908302 0.04569255 -0.00031239906
000100 93 d0 0f 3d 67 9c 1e 3e 87 b9 8b 3c 43 78 b8 3d
       0.03511102 0.1548935 0.01705624 0.09007313
000110 73 7a 5f bc 77 3d 4e 3b 43 a3 01 3e 02 d5 5c 3e
       -0.013640034 0.0031469741 0.12659936 0.21565631
000120 64 10 e0 3d a5 13 19 bd 7f 7f 43 3d 15 51 88 3a
       0.10940626 -0.03737225 0.04772901 0.0010400141
000130 7b 32 9e bc 9a c3 30 bd ec f3 69 bb 50 71 02 3d
       -0.01931118 -0.04315529 -0.0035698367 0.031846344
000140 5b 6d 5d be 4c b7 b7 3d 9d ce a8 3c 44 1e f6 bd
       -0.21623747 0.08970508 0.020606333 -0.120174915
000150 cc b6 dd bb 8f a8 07 be 98 d5 9f 3d 47 99 6f bd
       -0.006766176 -0.13247894 0.07804412 -0.058495786
000160 0f ad b1 3d b8 5d 2c be 5d 56 a5 3c 6e 28 87 3c
       0.086755864 -0.16832626 0.020182783 0.01649877
000170 09 e6 0b 3d f1 89 af 3d 87 f6 97 3d 57 3a ee 3a
       0.034154925 0.08571232 0.07420068 0.0018175346
000180 8e fc a2 3d cb 59 60 bc d8 f1 ce bb 0b 99 b0 bc
       0.07958327 -0.013693283 -0.006315451 -0.021557352
000190 96 40 fc 3c c9 67 e4 bc b4 fa 8a bd 5d d7 50 bd
       0.030792516 -0.02788152 -0.06786099 -0.050986636
0001a0 dc 10 dd bb ea 42 2c 3d 80 f1 98 bd ae 7c 3d 3e
       -0.0067463946 0.042056 -0.074679375 0.18504593
0001b0 06 c2 0b 3d d8 ad 1f 3d 8c fb ab 3b 24 f9 9a 3d
       0.034120582 0.03898415 0.0052484926 0.07567051
0001c0 0b f0 13 be 89 d1 f2 3c 5b 45 e0 3d a2 a7 16 3e
       -0.14447038 0.02964093 0.109507285 0.14712384
0001d0 80 5f 9b bc 53 86 d8 3d 13 dd 37 3d 6f e8 27 bc
       -0.018966436 0.10572495 0.044888567 -0.010248288
0001e0 c2 60 ba 3d 60 c9 01 3e 47 70 fb 3d 39 c9 28 bd
       0.09100486 0.12674475 0.122772746 -0.041207526
0001f0 9a e2 96 3c e5 08 62 3c 05 b7 bb bd 50 3f ca bd
       0.018418599 0.013796066 -0.091657676 -0.09875357
000200 b1 4b 22 be 6e bd 88 bd 3e 26 be 3d 69 0b 9a 3d
       -0.15849186 -0.06676756 0.09284638 0.075217076
000210 08 f3 55 3d d4 48 4c 3d 59 a0 38 be 9d 5c b7 3d
       0.052233726 0.04987414 -0.18029918 0.089532115
000220 db fe 87 3d 29 98 13 3d 72 fd d3 3b 2e 0a 92 bd
       0.06640407 0.036033783 0.006469422 -0.07130848
000230 5c 38 9f 3d 47 9e d7 3d 1e 52 36 be 1d b9 b2 3b
       0.077744216 0.10528236 -0.17804763 0.005454196
000240 1a 7c b5 bd f4 2c d3 3d b3 31 82 be a7 d7 d0 bd
       -0.08861561 0.103113085 -0.25428542 -0.101973824
000250 50 94 bb 3d 0b bf 97 3d e0 9a d7 3d fc 5c 93 bd
       0.09159148 0.074094854 0.10527587 -0.0719547
000260 bf 35 9c bd bb f8 bd bd eb 39 cf 3d 32 c9 e9 bc
       -0.07627439 -0.09275957 0.10118469 -0.02853832
000270 43 4f 84 bd a6 01 a7 bc 3b 4e 6c bd 35 63 51 3d
       -0.064604305 -0.020386528 -0.057691794 0.05112
000280 b3 da 16 ba 19 11 97 bc 4f 0c 1e bc 2d 60 06 3e
       -0.00057546346 -0.01844077 -0.009646489 0.13122626
000290 94 9b cc 3d a8 b1 57 3d 28 da f5 3d 44 75 68 3d
       0.09990612 0.05265966 0.12004501 0.05675246
0002a0 51 c9 92 bd 06 ea fc 3c 7b c2 9a 3a 7d 02 07 3c
       -0.07167304 0.03087331 0.0011807227 0.008240339
0002b0 01 56 14 be 1f 38 ef bd c6 7c 25 3e 27 04 20 3d
       -0.14485933 -0.11680626 0.16160879 0.03906646
0002c0 51 03 20 be f1 d1 e6 3c 15 3b 7d 3d 51 95 92 3d
       -0.15626265 0.02817628 0.061823923 0.07157386
0002d0 01 01 9a 3d 40 2c bf bb 67 0d ce bd 61 96 b5 3d
       0.07519723 -0.0058341324 -0.1006115 0.08866573
0002e0 ab 2f 08 be 54 c5 26 3d 0d 88 3e bd 17 44 c1 bd
       -0.13299434 0.04071553 -0.046516467 -0.09436815
0002f0 9c 22 2f 3b 8c b3 89 bd 0b 2c 67 bd 1e 71 f3 bd
       0.002672351 -0.06723699 -0.056438487 -0.1188681
000300 08 ac 88 bd 25 69 3c bd 27 7e 4c 3c e0 bd 5a 3d
       -0.06673437 -0.04599871 0.012481249 0.053403735
000310 e2 7d 16 3e 30 63 13 bd 85 da d1 bd 1f b4 b7 bd
       0.14696458 -0.035983264 -0.102467574 -0.08969902
000320 31 16 df bd 03 fa b1 3c 79 ea 19 3c ae cc e1 bd
       -0.108929045 0.02172566 0.009394282 -0.11025368
000330 2a 5d ba bd 26 dd 13 3d ac 09 c3 3d 4a 84 68 3d
       -0.09099801 0.036099575 0.09523329 0.056766786
000340 1a 42 ad 3d 7e 8d d3 bd 18 82 c0 bd 9b 64 b2 bc
       0.084598735 -0.10329722 -0.093998134 -0.021776488
000350 46 b9 19 bd 42 0d 53 3d 55 9c 44 bc 28 7f c6 3d
       -0.037530206 0.051526316 -0.012000163 0.09692222
000360 00 e5 93 3d 8c 28 96 3d 9a a6 a3 bc 8d ea 83 3d
       0.07221413 0.073319525 -0.019976903 0.064412214
000370 15 ae 2b 3d 2b 32 1e 3d c6 47 81 bc a0 48 65 3c
       0.041914064 0.038622063 -0.015781295 0.013994366
000380 35 c6 bb bd a7 17 e3 bc 4b e5 18 3d 40 a1 b3 3d
       -0.09168664 -0.02772124 0.037328046 0.0877099
000390 83 65 85 b8 e9 0f a0 bd 85 18 f6 3d a9 e8 77 bc
       -6.360842e-05 -0.078155346 0.120163955 -0.015131154
0003a0 79 4a b1 3d c1 c6 ef 3d 55 77 f0 3c fe 46 5c bd
       0.08656783 0.11707831 0.029353777 -0.05377864
0003b0 5c 56 1a 3e 6f dc 2a 3e 1d 17 be 3b ff f6 92 3d
       0.15072006 0.16685651 0.005801095 0.07176017
0003c0 44 85 71 bd 58 e0 10 3e 72 4c 23 3d 14 79 37 3d
       -0.058964983 0.1414808 0.039867826 0.044793203
0003d0 b4 bb 76 be fa 98 9a bd 96 83 13 be 34 c5 d5 bb
       -0.2409504 -0.07548709 -0.14405665 -0.0065237526
0003e0 c8 e3 54 bd ee c5 8a bd 97 eb 25 bd 07 42 16 3d
       -0.05197504 -0.06776033 -0.04050788 0.036684062
0003f0 77 9e c1 3c 2d b9 ec 3c fb 92 62 bb d0 d8 0c 3e
       0.023635132 0.028896892 -0.003457247 0.13754582

linear.weight f4 [86, 256]
000000 6f af a0 3d 41 d6 8a be 1f b4 24 3e 01 57 43 be
       0.07845961 -0.27116588 0.16084336 -0.19076158
000010 2f 49 10 bd 07 64 39 3e 1a 96 83 3b 44 fe 41 be
       -0.035226043 0.18104564 0.0040156962 -0.18944651
000020 42 00 70 bd 94 3e 9f 3d 91 a9 ee 3d 20 4f 0b be
       -0.058593996 0.07775608 0.11653436 -0.13604403
000030 3d c2 ec bd 14 e8 57 be f5 8c b7 bc 3b 6a 54 3e
       -0.115604855 -0.21084625 -0.02240608 0.20743649
000040 be 81 e1 bd dd e8 08 3c 54 56 32 3e b6 29 ad bd
       -0.110110745 0.0083563 0.17415744 -0.08455221
000050 05 3b 35 3d 75 0e 11 3e 1e c7 b9 bc a4 02 99 bc
       0.04424574 0.14165671 -0.022677954 -0.018678017
000060 33 18 9d 3d 05 90 0b 3d e4 79 8d 3c 7d d3 62 3e
       0.07670631 0.034072895 0.017270036 0.22150989
000070 47 a3 26 3c f1 4c 7e 3d 1a eb 40 bd b5 e0 52 3e
       0.010170764 0.062085096 -0.04709921 0.20593531
000080 3c 95 1c be ed c2 cb bd 1f 06 70 be 7e d6 f5 3d
       -0.15291303 -0.099492885 -0.23439835 0.12003802
000090 ae 67 55 be 5c 6f 84 3d 56 9c 5d 3e 64 a9 68 be
       -0.20840332 0.064665526 0.21641669 -0.22720867
0000a0 4d 7a 50 3b 36 fb 73 3c 0d 4b 99 3d 69 c2 eb bd
       0.0031811178 0.014891436 0.07485018 -0.1151169
0000b0 d3 a5 27 3e c8 51 a1 3b 3a c9 98 3e 49 6e bb bb
       0.1637185 0.004923079 0.29841024 -0.005719934
0000c0 ff ef b1 3e 07 39 72 3e 1e 3a bc 3d a1 dc 0e 3d
       0.34753415 0.23654567 0.091907725 0.034878377
0000d0 63 49 fa 3a ae 46 69 3d 25 51 52 3e 0e 85 75 be
       0.0019095357 0.05695217 0.20538767 -0.23976538
0000e0 06 e1 6e be 9a 45 7f 3e 8a 12 22 3d 41 4c ed bd
       -0.23328027 0.24928895 0.03956846 -0.1158681
0000f0 49 bf 81 be 77 c0 43 be 0c 69 25 3e 33 08 10 3e
       -0.25341251 -0.19116388 0.16153353 0.14065628
000100 75 af 1c be 4a 32 08 3e f7 95 fd bd 7b d5 62 3e
       -0.15301307 0.13300434 -0.12382119 0.22151749
000110 86 5d 8f 3d fd ce 1d 3e 85 24 78 3e c6 e5 16 3d
       0.0700026 0.15410991 0.24232681 0.036840223
000120 b1 8b dc 3d 44 9d a5 3e f1 66 31 be 6d 5d ba 3d
       0.107688315 0.32346547 -0.17324425 0.09099851
000130 9a ec 1f bb f1 1b 4e 3e fc 4c 30 3e be 65 dc 3d
       -0.00244025 0.20127846 0.17216867 0.10761593
000140 90 e1 4b be 83 09 fd 3d fc 0f 97 3c 1f 92 27 be
       -0.19910264 0.1235533 0.01844024 -0.16364335
000150 54 30 21 3e f2 83 dc bc 1c 74 8c 3d 3a e3 8b be
       0.15741092 -0.026918385 0.068580836 -0.27321798
000160 59 4c 94 3e b0 79 c5 bd ed 1f 3d be 67 cb 13 bd
       0.289645 -0.09642351 -0.1846921 -0.03608265
000170 99 89 28 be 14 fe ff 3d a2 17 8b be 89 d0 fc 3c
       -0.1645874 0.124996334 -0.27166468 0.030861156
000180 e1 d1 26 3d 39 64 f1 bd 0e 05 f8 3c 6e ce 58 bc
       0.0407275 -0.11786694 0.030275848 -0.01323281
000190 53 77 2e be 37 f3 0c 3e 58 19 8a bc 82 ae bd 3c
       -0.17037706 0.13764654 -0.016857788 0.0231545
0001a0 ed b1 58 3d 3a 29 9b 3b a9 65 44 3a 7e e7 42 3e
       0.05290406 0.004735139 0.0007491955 0.1903362
0001b0 a5 d6 07 be 0e 69 99 3e 97 f9 45 3e c6 18 48 bd
       -0.13265474 0.29962963 0.19333492 -0.04885175
0001c0 6d 25 97 3e ff 21 49 3e b4 c9 59 be 5b e3 e0 bd
       0.2952074 0.19641875 -0.2126835 -0.109808646
0001d0 d5 3b fa 3b ff 51 29 3d 7a 0e 07 3e 34 ef 2a be
       0.007636527 0.041337963 0.13189116 -0.16692811
0001e0 6a 60 6b bd 90 7a d5 bd fd 2e 6f be f6 ba 78 bd
       -0.057464994 -0.104237676 -0.23357768 -0.060725175
0001f0 1f 18 4d 3d e0 31 41 3e 1c b3 11 3e 97 75 49 be
       0.05007183 0.18866682 0.14228481 -0.19673763
000200 2a 14 b4 be b5 25 a2 be f8 9c bc be 88 cb 97 3d
       -0.35171634 -0.31669393 -0.36838508 0.074118674
000210 e1 bf 44 be e0 a2 04 3e e3 56 9c be 0f a5 7f 3e
       -0.19213821 0.12952757 -0.3053504 0.24965309
000220 4e ce 6a bd f8 a2 9f bc 1a ef 8a bb 92 c0 d8 3d
       -0.057325654 -0.01948689 -0.004239929 0.10583605
000230 8c 76 d5 bc e3 73 ea 3d eb aa 14 bd 4e f1 c5 bd
       -0.026057504 0.11447885 -0.036295813 -0.09665166
000240 aa 84 cd 3d 63 ec 9f bc 53 71 db bd ca 77 53 3e
       0.10035069 -0.019521898 -0.10714974 0.20651165
000250 2d 9a 8d 3e 4a ad 09 3e 19 dd 82 be a0 ee 88 be
       0.2765669 0.13445011 -0.2555931 -0.26744556
000260 ef 3c 44 3d e4 03 db ba 1c 78 0b be 80 3f e2 bc
       0.047909673 -0.0016709534 -0.13620037 -0.02761817
000270 34 0b 49 3d 9e 5d 86 3b f2 8e 89 3e 5d 39 03 3e
       0.04908295 0.0041005155 0.2686687 0.12814851
000280 76 35 cf 3d dd d0 33 be cc 47 2d be 23 89 96 3e
       0.10117619 -0.17560144 -0.1692192 0.29401502
000290 b0 ce be 3e 45 fa 7d be b3 ae f0 3c 18 5f ab bd
       0.37267065 -0.24802501 0.029380178 -0.08367747
0002a0 bb f5 51 bd 30 76 36 3e 6e 03 32 bd 60 f1 48 3d
       -0.051259737 0.17818522 -0.043460302 0.04905832
0002b0 8a 6b 91 bd 39 7c b1 bd af ba 8e 3c 12 9e b9 bc
       -0.071005896 -0.08666272 0.017423002 -0.022658382
0002c0 96 1c 5a be 21 14 92 3d 0e 67 aa bd 34 05 54 3e
       -0.21299967 0.071327455 -0.08320437 0.2070511
0002d0 64 e3 27 3d ed ca 7a bd 50 4b 23 be 8c ed 8d 3e
       0.04098834 -0.06122868 -0.15946698 0.27720296
0002e0 b6 9f 3a bd 68 74 0b bd 60 96 fc 3d 74 4b 5c 3e
       -0.04556247 -0.03404656 0.12333369 0.21513158
0002f0 9d e0 a7 bd 26 aa cd bc 74 d7 7f bd 3a df 8b bd
       -0.081971385 -0.025105547 -0.06246133 -0.068296865
000300 f9 d8 c9 bd 73 2b 39 be 37 c5 0f 3e 28 e5 5e be
       -0.098558374 -0.18082981 0.14040075 -0.21767104
000310 39 66 8c 3e 35 65 7e be 8f 97 ea bd f4 06 e9 bd
       0.2742174 -0.24843295 -0.11454689 -0.11378279
000320 f7 93 10 bd 4b 7f 1a 3e fc 7b be bd 04 de 64 be
       -0.03529736 0.15087621 -0.09300992 -0.22350317
000330 b9 1a 80 3e a4 3a c9 bd 4c 48 41 bd 66 5f ff bc
       0.25020388 -0.09825638 -0.04718809 -0.03117342
000340 c1 25 2b 3e 53 08 50 be 28 98 2a bd 3c 1f a3 3e
       0.1671362 -0.20315675 -0.041649014 0.31859767
000350 c3 b9 d5 3e aa 76 45 3e 12 52 68 bd ad fb f2 3d
       0.41743287 0.19283548 -0.056718893 0.118644096
000360 61 f9 97 bd 3d 7d 5c bc fd ad 84 3d 5d 10 11 be
       -0.07420612 -0.0134575935 0.06478498 -0.14166398
000370 85 57 30 3c f3 1f 57 be e1 d7 11 3d 6c b0 dd 3c
       0.010763054 -0.21008281 0.03560627 0.027061664
000380 ff 22 10 be 79 f4 86 3d ff e3 c8 bd 38 a9 c5 3d
       -0.1407585 0.06589598 -0.09809112 0.096514165
000390 cb bd d3 3e 89 99 96 3d b4 74 6a bc 37 20 cd 3c
       0.41355738 0.07353503 -0.014310051 0.025039775
0003a0 5c ee 81 3d 3c 5c 68 bb 4b 47 81 be 25 f7 e5 3d
       0.063442916 -0.0035455367 -0.25249705 0.1122878
0003b0 b9 94 3b 3c 32 9f 79 bd 23 7f 1f be 7b 84 a9 3e
       0.011449032 -0.060942836 -0.15575843 0.33108887
0003c0 0f 25 2f 3e 81 11 f9 bd f1 54 a8 bd 5e e7 02 3e
       0.1710398 -0.12161542 -0.08219326 0.12783572
0003d0 8e 93 be 3d 7a e5 3c 3e 79 ca cd bd 3f f1 34 bd
       0.093054876 0.18446913 -0.10048384 -0.044175383
0003e0 01 6c 5f 3d ea f3 ab 3d ad 64 90 3e ff 01 8f be
       0.05454636 0.08396132 0.2820181 -0.2793121
0003f0 50 f4 19 be 7d e3 0f bd f7 9d 9f bd a8 59 04 3e
       -0.15034604 -0.03512906 -0.07793801 0.12924826

linear.bias f4 [86]
000000 bb ef 6a 3d 5b b1 b5 3e a7 47 64 3d 81 a6 a9 bd
       0.05735753 0.35486874 0.055732395 -0.08283711
000010 e8 f9 fe bd e7 0c b6 3e cb 8d de bb 17 41 61 bd
       -0.124500096 0.3555672 -0.0067918054 -0.054993715
000020 92 8a 0c be 98 fb 2f be 4d b4 16 be 83 db 2b be
       -0.13724735 -0.17185819 -0.14717217 -0.16782956
000030 2f 83 12 be d5 2f 41 be bc fd 22 be 24 cd e0 bd
       -0.14307855 -0.18865903 -0.15917104 -0.109766275
000040 23 66 28 be d5 e6 2c be 02 6a 0a be e4 f2 db bd
       -0.16445212 -0.1688493 -0.13517001 -0.10739687
000050 98 91 f4 bc b7 61 8b bd 9c 82 99 3d f7 4d 55 bc
       -0.02985458 -0.06805747 0.07495615 -0.013019077
000060 5c 17 3d 3c b6 6c 87 3d 4e 0f 2d 3e ff db 1c bd
       0.011541214 0.06612532 0.1690037 -0.038295742
000070 4c ab b7 3c 71 66 b3 bc 1d fe 9b 3d 0c ac 1a bd
       0.022420548 -0.021899434 0.07616828 -0.037761733
000080 b7 03 2f bd 08 6a 02 3e 38 6c 79 3d 13 3d 4a 3d
       -0.042728152 0.1273576 0.06089422 0.04937465
000090 cd e7 b8 3d 98 16 d6 bd 3c b5 15 bd da 98 c1 3d
       0.090285875 -0.10453528 -0.03654979 0.09452982
0000a0 44 ee a2 3d 63 b9 bb 3d d8 65 2c bc c6 c1 b7 bd
       0.07955602 0.09166219 -0.010522328 -0.08972506
0000b0 23 a9 57 3d 5a 3a 53 bd 17 5e 17 3d c4 67 eb bd
       0.052651536 -0.05156932 0.036954965 -0.11494401
0000c0 a9 d0 41 be d1 83 2e be 2b cb ad 3e cb 73 04 3d
       -0.18927254 -0.17042471 0.33944067 0.03233699
0000d0 25 16 e0 3d 74 6e ba bc 82 3a 82 bc a1 86 12 3d
       0.10941724 -0.022757746 -0.01589704 0.035772923
0000e0 d2 3b 7e 3d 4f c9 cd 3e 0b bc d3 3d 7d ed b2 bd
       0.062068768 0.4019265 0.10338601 -0.087367035
0000f0 0f 50 9c 3d 7a 37 a5 3d a3 12 58 3e 38 cd 0c 3d
       0.076324575 0.08067222 0.2110086 0.0343754
000100 60 b3 29 3e 8d 1f 3c bd 71 6a 90 bc 26 7f e8 3d
       0.16572332 -0.045928527 -0.01762888 0.11352377
000110 7a a1 55 3d fd fb 2d 3c f5 fb 5c 3c 02 d8 21 bd
       0.05215595 0.010619161 0.013487806 -0.03951264
000120 f0 26 17 bd 84 9e 12 3b 59 92 dd 3b bc 45 91 3b
       -0.036902368 0.0022372315 0.0067618308 0.004433362
000130 c0 c7 f9 bd d6 40 80 bd a0 e3 3a be 2e e1 2f be
       -0.121963024 -0.062623665 -0.18250895 -0.17175743
000140 ff 96 97 3d 5a fc fb bd ea e8 09 3e 11 89 bf bd
       0.07401847 -0.123039916 0.13467756 -0.09352315
000150 1b cb 2a bc 5e f6 ed 3d
       -0.010424401 0.116192564
